docs/source/w2.npy (npy, 3328 bytes, 1 tensors)

array f8 [400]
-1.1670019415427009 -1.0305924483298514 -0.8898118600365159 -0.7449095300678146 -0.5961510718503558 -0.44381927177706726 -0.2882148090182722 -0.1296432373078425
0.0315803600788799 0.19504289714591697 0.36026128957347797 0.5266478513963252 0.6937161075342982 0.8610894237779415 1.0284417387524347 1.1954473070230824
1.361805659572985 1.5272699653685424 1.6916621884603456 1.8546099807499796 2.0156515312244467 2.174229434305275 2.329868855307896 2.4821197035510445
2.6305279477360597 2.7746133006087104 2.9139318868670765 3.048021518236381 3.1764429986831564 3.298729681780556 3.4144423305793246 3.5231244055685194
3.6243562510290372 3.7176984807901703 3.8027279312747413 3.879028416324513 3.9461563089366063 4.003718712513663 4.051328396741363 4.088586461828472
4.114963090744144 4.129923345192253 4.13297901350531 4.123965684657265 4.102970351262281 4.070124399483683 4.025581964294067 3.9694907787426112
3.9019714897157765 3.823090571115874 3.7325804032915797 3.6300689104928177 3.5152121488670263 3.3878426882991493 3.2479549978091624 3.0956017358166017
2.9308773481238783 2.7538994149292457 2.564841447809578 2.36389255261743 2.1513121840280434 1.9273939381012137 1.6924759475773397 1.44695514320391
1.1912650388430466 0.9259000576217717 0.651381496486137 0.3682631732800908 0.07748088541614731 -0.21985426014712675 -0.5223089129746853 -0.828879165670475
-1.1388597370262499 -1.4516779200935808 -1.7667950785429858 -2.0836886076608847 -2.402005529764618 -2.7214260496783234 -3.0410620423129124 -3.3597405642037828
-3.67604215175689 -3.988694258605842 -4.296495588675808 -4.598201001460392 -4.892518984662701 -5.178122510195061 -5.453646709762525 -5.7177119859907375
-5.968893673636544 -6.2056760379353975 -6.425931148390719 -6.627380176756635 -6.80789800391996 -6.966321872174267 -7.102447519560482 -7.216093561742657
-7.307169588005686 -7.375510024256067 -7.420826102003678 -7.442460630658257 -7.438631512824003 -7.4070108590322254 -7.345355922535704 -7.251850917282348
-7.125248191164217 -6.964400883922859 -6.768300910841727 -6.535984059633671 -6.266645325086669 -5.959526128103638 -5.613706326653163 -5.22919459955202
-4.806706132773758 -4.348374641224821 -3.8559645172788213 -3.330312946783822 -2.7718828963202324 -2.180929242327685 -1.5576016508178132 -0.9015415488168327
-0.21172514262605197 0.5115371099040144 1.2667375794917575 2.0512469990961564 2.862059181480408 3.696185243888883 4.549463656651895 5.415928081327136
6.288831735613804 7.161728486559487 8.030743993547004 8.893756979119814 9.748563062615002 10.59301578409297 11.424303454100075 12.239040839970148
13.0318318918302 13.793597724652985 14.513430428458948 15.180001795479791 15.782634316571317 16.31130107353666 16.75529804918616 17.103263394720962
17.345481576306415 17.47365440989156 17.48236316221085 17.365034844792163 17.113724882771233 16.71993952185739 16.17485732098988 15.47014992125524
14.596932304406081 13.545865973844796 12.310347341173767 10.885209540260108 9.268542423542419 7.46090667431311 5.465695747445084 3.294650131049763
0.9584240998000726 -1.5223875624716048 -4.186253272414167 -7.070464819577221 -10.140142585637756 -13.307454252830597 -16.384466821425125 -19.315394725399383
-22.085410894988705 -24.65577223111904 -27.011496003692745 -29.12483402037398 -31.063587770107766 -32.91228158234294 -34.61246611743668 -36.0734899862203
-37.15879219657957 -37.78741537949309 -37.915972374984484 -37.49938689060147 -36.505835927728725 -34.91095413318354 -32.70334766147836 -29.884019884364548
-26.46818586311652 -22.485648403260495 -17.981157285113873 -13.014172363163098 -7.658216460646574 -1.9996685055307883 3.863780239017142 9.825225778913948
15.770965259750154 21.5832401236122 27.143242929542694 32.33420791096166 37.04457707585229 41.171044848688844 44.62147382571255 47.317459657754945
49.196589135815216 50.214208403066806 50.34469929174221 49.582270824376295 47.94107407828693 45.454825622247554 42.175897470600226 38.17383129044763
33.53349533176621 28.352773768827674 22.74002365059651 16.811292097471153 10.687407113228316 4.491040397297948 -1.6561976191042909 -7.636538951967057
-13.338659354367346 -18.659997679423967 -23.50875999709249 -27.80562054373071 -31.48500705130913 -34.49604263600129 -36.80308601807091 -38.38588170538721
-39.23937913642223 -39.3731888534453 -38.810753772960744 -37.588249975861075 -35.75326938805602 -33.36330941743688 -30.484174386021493 -27.1882385981518
-23.552682267572514 -19.657735227863512 -15.584922446847758 -11.415421848217962 -7.228467930839292 -3.099931779586445 0.898978515876589 4.702844589966206
8.252968024550006 11.498149286701517 14.395251380428713 16.909596892589867 19.015184717462766 20.694683794307462 21.93931469837076 22.74854986603119
23.129679719390122 23.097273088694237 22.672500120111657 21.882417733264887 20.759137585794914 19.33900664686723 17.66169349052648 15.76931737571154
00000000: e1b5 543a 0aac f2bf ee4c d181 4e7d f0bf
00000010: 7a64 ceb8 5679 ecbf fad6 c382 4cd6 e7bf
00000020: f052 a269 ab13 e3bf 947d 67f2 8867 dcbf
00000030: 1535 bd86 1c72 d2bf 823f 314c 2698 c0bf
00000040: b329 780b 4d2b a03f ed86 4768 2af7 c83f
00000050: 67e7 2e5e 850e d73f 3530 4898 4cda e03f
00000060: f12e 521f ec32 e63f 09d9 4168 0b8e eb3f
00000070: 8287 1c53 7f74 f03f 2916 fc5a 8d20 f33f
00000080: 98fa 35bb f4c9 f53f 2ebc 96a1 b26f f83f
00000090: 5212 f55e 0c11 fb3f 6b80 e283 7bac fd3f
000000a0: 3aee f5e8 0d20 0040 e0bb d266 d264 0140
000000b0: 8621 4c48 92a3 0240 5512 3c93 61db 0340
000000c0: 49ec 953c 520b 0540 c949 4975 6832 0640
000000d0: e2ec 6685 bb4f 0740 dda2 121b 5962 0840
000000e0: 5e9e 67f2 5a69 0940 5dbc 2c63 cc63 0a40
000000f0: 6b54 ff23 c750 0b40 f63f 2dd9 5b2f 0c40
00000100: 76c8 797d aefe 0c40 b30f 7bb3 d8bd 0d40
00000110: 3749 239f fc6b 0e40 99f2 e20c 4008 0f40
00000120: 5c4b 1e66 ba91 0f40 8484 92d6 ce03 1040
00000130: ea70 656e 8f34 1040 c2af d168 b65a 1040
00000140: 04f9 6be2 b875 1040 c059 1aa0 0a85 1040
00000150: 153d 88a6 2b88 1040 81b7 45dc f07e 1040
00000160: 3a84 4c0f 7169 1040 7abc c9b0 ce47 1040
00000170: b50a 9028 321a 1040 e2c8 a361 84c1 0f40
00000180: 7f07 12d4 3c37 0f40 89b5 6482 b095 0e40
00000190: 639f 4e1d 53dc 0d40 1258 a691 610a 0d40
000001a0: 0a16 0f8c 271f 0c40 8ae6 7144 4d1a 0b40
000001b0: c6c2 73d4 cffb 0940 622f c6d7 cac3 0840
000001c0: ef3b b6d2 6f72 0740 d5c1 9c6a fc07 0640
000001d0: b123 ce97 cb84 0440 a2ff a57f 40e9 0240
000001e0: 2018 8f29 e335 0140 2b74 aa06 9bd6 fe3f
000001f0: d2c7 c1a8 6114 fb3f c86f ad6f ba26 f73f
00000200: 542f ebed 6b0f f33f 6833 5b28 f9a0 ed3f
00000210: 7514 1402 1ed8 e43f 75c9 63b3 9f91 d73f
00000220: 126f ed8c c9d5 b33f 81ed 9b34 2f24 ccbf
00000230: b356 742e c1b6 e0bf 9e7e 9c99 2d86 eabf
00000240: 7824 d4fc c438 f2bf 2309 72a0 123a f7bf
00000250: c936 91ea ca44 fcbf 369c c7ee 64ab 00c0
00000260: 9633 d9ac 4e37 03c0 95ce 4e05 7bc5 05c0
00000270: 38ba 0656 1854 08c0 1066 32a9 bfe0 0ac0
00000280: 431b a4c9 8868 0dc0 f5a3 1389 d8e8 0fc0
00000290: 5d15 238a 9c2f 11c0 ccd3 a6cd 8e64 12c0
000002a0: e0bd 287f f091 13c0 7ae0 4fbf 65b6 14c0
000002b0: e278 59c3 88d0 15c0 161c 0fe4 efde 16c0
000002c0: f147 c6a9 25e0 17c0 7803 42bd 9cd2 18c0
000002d0: 52be 824b 27b4 19c0 5450 f5f2 6f82 1ac0
000002e0: 115c 459d 493b 1bc0 8597 197b 83dd 1bc0
000002f0: 3d46 a800 e868 1cc0 543e 72a1 47dd 1cc0
00000300: a93d 1baa 8a3a 1dc0 f9ff 25b3 8580 1dc0
00000310: c6a2 a509 edae 1dc0 6cc7 4966 14c5 1dc0
00000320: e04b 8a9e 28c1 1dc0 1fa4 6274 c7a0 1dc0
00000330: 4215 a3fb a461 1dc0 f9c7 f434 e501 1dc0
00000340: dfbb d30f 4180 1cc0 8bba c2e7 8bdb 1bc0
00000350: 7c35 5679 bd12 1bc0 3a37 5d01 d924 1ac0
00000360: 9e83 db78 0b11 19c0 5673 6f04 8ed6 17c0
00000370: 654b 696e 6f74 16c0 a4fb 35fd b1ea 14c0
00000380: d4fb 262c 113a 13c0 ef43 6b52 bc64 11c0
00000390: e1fd c1ec 03d9 0ec0 240e 3f1d 7ba4 0ac0
000003a0: 194c a0f0 d02c 06c0 ee7f d507 8b72 01c0
000003b0: 7554 67b5 efeb f8bf 57e9 84a9 6dd9 ecbf
000003c0: 26f0 a839 cf19 cbbf 974c b712 835e e03f
000003d0: 3380 c89f 8e44 f43f cd16 c92f f468 0040
000003e0: 2866 bd48 7fe5 0640 2eaf b391 c991 0d40
000003f0: 50a4 ce99 a632 1240 fe26 0b0d e9a9 1540
00000400: 6708 aa81 c327 1940 156b 0227 9ca5 1c40
00000410: 67aa 3dad bd0f 2040 60c8 c783 9ac9 2140
00000420: 9ed9 61a8 437f 2340 d861 cdc3 9f2f 2540
00000430: 1be1 654d 3ed9 2640 0a29 9c8f 637a 2840
00000440: d3c2 0c45 4c10 2a40 1121 e370 5296 2b40
00000450: 4101 665a e006 2d40 2d9d 0132 295c 2e40
00000460: 5fcd f471 b590 2f40 b60c 5a6d b14f 3040
00000470: b6fc 8336 5bc1 3040 5233 4778 6f1a 3140
00000480: 499b 077b 7158 3140 2617 586a 4179 3140
00000490: a17d f626 7c7b 3140 6448 70ec 725d 3140
000004a0: 6f3e ec12 1d1d 3140 b279 ddf4 4db8 3040
000004b0: 221e 0b73 c32c 3040 3704 907d b7f0 2e40
000004c0: 38b3 6a1c a131 2d40 3f53 b3be 7b17 2b40
000004d0: d87b c1d8 e59e 2840 790c 532f 3ac5 2540
000004e0: 1368 7d64 7e89 2240 52bb 52eb f7d7 1d40
000004f0: d2a6 9458 dfdc 1540 7ef7 2487 715b 0a40
00000500: 9cdd 8a04 69ab ee3f 7571 8a0f b35b f8bf
00000510: d42a 872d b9be 10c0 2b69 feed 2748 1cc0
00000520: 9d2e dcc4 c047 24c0 d9d8 d1a4 6a9d 2ac0
00000530: 016b e86a 6c62 30c0 d7eb 6eb5 bd50 33c0
00000540: d6b2 087d dd15 36c0 ff47 5eb0 e0a7 38c0
00000550: 21e5 ef66 f102 3bc0 38ef 521f f51f 3dc0
00000560: d609 c149 4710 3fc0 fa73 94a4 c574 40c0
00000570: 3a26 2c4a 654e 41c0 29b3 af1e 6809 42c0
00000580: aa95 7d4d 5394 42c0 27a5 f306 cae4 42c0
00000590: 854c 3195 3ef5 42c0 9c97 dde8 ebbf 42c0
000005a0: 4c5e 4f3b bf40 42c0 f416 2125 9a74 41c0
000005b0: 42e2 d14b 075a 40c0 045c 8c20 4fe2 3dc0
000005c0: f588 5a07 db77 3ac0 c35b 2974 537c 36c0
000005d0: d6cb b31f 2dfb 31c0 c895 9899 4107 2ac0
000005e0: e3a9 f07e 03a2 1ec0 ef88 2167 a4fe ffbf
000005f0: d713 2c9d 05e9 0e40 c980 48fe 83a6 2340
00000600: 47f5 61f5 bb8a 2f40 20a1 8839 4f95 3540
00000610: e4c4 9191 ab24 3b40 89d2 2753 c72a 4040
00000620: ec77 9db3 b485 4240 49a2 2fcc e495 4440
00000630: b160 4e74 8c4f 4640 aded 9f84 a2a8 4740
00000640: a289 32d5 2999 4840 a4d9 522e 6b1b 4940
00000650: 5b7e 3c1b 1f2c 4940 3a0e b2d9 87ca 4840
00000660: 88ad 8a1d 75f8 4740 d277 dab9 37ba 4640
00000670: abd6 edce 8316 4540 3dbf 8d1a 4016 4340
00000680: 9540 3593 49c4 4040 6400 b861 4f5a 3c40
00000690: 1b94 a130 72bd 3640 5024 c2d6 b0cf 3040
000006a0: efb4 3cd3 f35f 2540 5da3 3d4b d3f6 1140
000006b0: 8341 1c13 c97f fabf 8350 f5dd d08b 1ec0
000006c0: 05fc 46c2 64ad 2ac0 d48f a09b f5a8 32c0
000006d0: 7a06 5d18 3e82 37c0 244f e025 3dce 3bc0
000006e0: bdb3 0f6c 297c 3fc0 0a86 3953 7e3f 41c0
000006f0: a5be cb85 cb66 42c0 a361 5c92 6431 43c0
00000700: 9c23 bdf9 a39e 43c0 c063 00a7 c4af 43c0
00000710: cdfc 95c7 c667 43c0 1a19 74c6 4bcb 42c0
00000720: a763 9d21 6be0 41c0 301c 49ec 80ae 40c0
00000730: f085 41da f27b 3ec0 28e8 9e67 3030 3bc0
00000740: 964d c895 7c8d 37c0 d419 fd55 61a8 33c0
00000750: 99d0 77f4 7a2b 2fc0 b147 282c b2d4 26c0
00000760: e68e 4c7f f3e9 1cc0 283d 6908 a9cc 08c0
00000770: dfe3 af97 6ec4 ec3f 324d 007e b6cf 1240
00000780: 83c0 6006 8581 2040 47d1 5d6c 0dff 2640
00000790: c547 9163 5eca 2c40 7a37 8a57 dbe8 3040
000007a0: cee6 4825 e303 3340 9b9c 11cc d6b1 3440
000007b0: 8f27 96ed 76f0 3540 7607 caf6 a0bf 3640
000007c0: 2bbc a9b0 3221 3740 00b9 9ee3 e618 3740
000007d0: 866f c6f7 28ac 3640 7cc8 e920 e6e1 3540
000007e0: 4f27 40d7 56c2 3440 df6b bd23 c956 3340
000007f0: 8ec9 9dbe 64a9 3140 e9d9 91f7 e389 2f40
